best_model/best_model_vision.pth (torch, 41688 bytes, 20 tensors)

conv1.weight f4 [8, 1, 3, 3]
000000 86 e9 62 3e c4 2b b8 3d e3 08 89 be e2 2f cf 3e
       0.22159395 0.08992723 -0.26764593 0.4046622
000010 3a 68 90 bc d9 5c b2 be 70 dc 3c 3d c5 c8 21 3e
       -0.017627824 -0.34836462 0.046108663 0.15799244
000020 9b d6 11 be 6c cc 2d 3e e6 cb 32 be c6 95 c6 3d
       -0.14242022 0.16972512 -0.17460594 0.09696536
000030 71 fa d2 3e 36 a8 07 be 90 98 56 3e d9 4c f4 3d
       0.41206697 -0.13247761 0.20956635 0.1192872
000040 52 7d 77 bd 31 25 75 3d 2e dc 4a 3e 93 d8 82 bd
       -0.06042225 0.05984992 0.19810554 -0.063889645
000050 be 37 fe 3d f4 c7 87 3e ec 86 c5 3d 19 8a 94 3e
       0.12412976 0.2651974 0.09644875 0.2901161
000060 92 29 57 3e 19 32 7d 3c fe d4 a5 3e 42 ca aa be
       0.21011952 0.015453839 0.32389063 -0.33357435
000070 f2 91 5c 3a 0c 0c 66 be bd 29 61 3e 35 3b 1f be
       0.00084140815 -0.22465533 0.21988578 -0.1554993
000080 27 e6 c5 3c a6 e2 8c 3e e5 72 0e 3e 6b 10 73 3e
       0.024157597 0.2751667 0.13911016 0.23736732
000090 09 86 8a be 98 b6 51 3d 9d 41 42 3e f7 ee 18 be
       -0.27055386 0.051199526 0.18970342 -0.14934908
0000a0 dd 5f 06 bd b0 7e bf 3d 74 2b 9d be 44 78 f3 3c
       -0.032806266 0.093503356 -0.30697215 0.029720433
0000b0 f7 86 96 3e a9 b7 2d 3e 28 0f 8d be 54 fa b2 be
       0.29399845 0.16964592 -0.27550626 -0.3495661
0000c0 b3 e8 9f bd d2 7f 90 3e c7 68 c4 bd c8 c1 00 be
       -0.07808056 0.2822252 -0.09590297 -0.12573922
0000d0 ed ff a8 be 01 5f f9 bd 57 71 61 be ab d9 41 be
       -0.33007756 -0.12176324 -0.22015892 -0.1893069
0000e0 90 f6 13 3e 18 63 fb bd 00 55 98 3c ee 79 bf 3e
       0.14449525 -0.1227476 0.018595219 0.37397712
0000f0 3a 1f 20 3e ac 4e 6a be 90 65 bc 3e 1f 1c 1a 3d
       0.15636912 -0.22881573 0.36796236 0.037624475
000100 5a e5 b1 bd a6 3f 8f 3d a4 d1 92 be 3c 8d 1f be
       -0.086863235 0.06994562 -0.28675568 -0.1558122
000110 33 e8 17 3f d9 dc 75 3e ce 23 fa bd d3 be 95 3e
       0.5933868 0.24010028 -0.122138605 0.2924715

conv1.bias f4 [8]
000000 f0 ec f9 be c3 19 a8 be fa 40 02 3e 24 ee 95 3e
       -0.4881358 -0.32832155 0.12720099 0.2928325
000010 25 0f b6 be e8 06 ed bd 57 c9 2c bf c9 bd 82 3e
       -0.3555843 -0.11573583 -0.6749472 0.2553542

bn1.weight f4 [8]
000000 a1 5d 8f 3f 65 f3 7a 3f 30 be 63 3f 78 e5 7b 3f
       1.1200448 0.9802764 0.8896208 0.98397017
000010 ed 42 7d 3f 68 25 75 3f 4b a3 a6 3f 00 06 7f 3f
       0.98930246 0.957602 1.3018583 0.9961853

bn1.bias f4 [8]
000000 2d 7b 1d bb 6e f6 3c bd 3b fb 0e be 80 38 62 3d
       -0.0024029717 -0.04613345 -0.13963024 0.055229664
000010 dd 09 10 be 3c 8c b5 bc 8c bf f0 bd 77 51 e2 bb
       -0.14066263 -0.022161596 -0.11755285 -0.006906684

bn1.running_mean f4 [8]
000000 6b 71 bd be ac 56 04 3e 9a 57 3b 3f 3b 94 ad 3e
       -0.37000594 0.12923688 0.73180544 0.33902153
000010 7a 9c cd be 5d bd 1c bf 74 85 ea be e5 f9 0b 3f
       -0.40158445 -0.61226445 -0.45804942 0.54678184

bn1.running_var f4 [8]
000000 97 88 36 3b 24 23 4c 3d 95 ec 0c 3d c5 a2 86 3c
       0.002785241 0.0498382 0.03440531 0.016435036
000010 04 26 af 3a a1 1e c7 3c 06 ee f9 3b be d8 66 3c
       0.001336277 0.024306597 0.0076272516 0.014089761

conv2.weight f4 [8, 4, 3, 3]
000000 b8 48 cf 3c 91 64 57 3d 5b 27 97 bd 56 69 17 be
       0.02530323 0.052586142 -0.07380553 -0.14786276
000010 45 a2 e1 bd 43 21 f4 bc 0e 35 34 3e 4a 0a a2 3e
       -0.110172786 -0.029801017 0.17598364 0.31648475
000020 fe f0 67 3e 32 07 0f 3d ad 3c bb bc 51 9b c9 bd
       0.22650525 0.03491897 -0.02285608 -0.098440774
000030 80 46 f5 bd 6f ff b5 3c e9 d0 db 3d 59 8f d9 bd
       -0.119763374 0.022216527 0.10733206 -0.106230445
000040 08 69 1d be 98 74 6d 3b 76 bb 56 3d 6a 89 49 3d
       -0.15372097 0.0036232825 0.05242487 0.049203314
000050 ff 6a 30 be 00 5e fc bd ad c4 c4 bd 7f 60 26 3e
       -0.17228316 -0.123226166 -0.096078254 0.16247748
000060 e6 de ae bc a2 37 3c be 20 e4 0a be a3 93 9b 3d
       -0.02134652 -0.18380597 -0.13563585 0.07596519
000070 a2 cc a9 3c 4e 34 0a 3c 48 62 df bb 8e 48 7e 3d
       0.02072746 0.008435322 -0.006817136 0.062080912
000080 8c a0 ad bd a8 bd ac be 98 c7 b7 bd c7 67 d8 bc
       -0.084778875 -0.33738446 -0.08973616 -0.026416672
000090 98 bc ac 3d 26 6e f6 3d ee 39 07 be 43 18 a8 3c
       0.08434409 0.12032728 -0.13205692 0.020519381
0000a0 59 cb d3 3d 46 8d 0f 3e 26 ca 29 3d dc 45 9a 3d
       0.1034152 0.14018735 0.04145255 0.07532856
0000b0 39 c0 86 3e 4e cc 28 be 6e 81 08 3d 98 fc a4 bd
       0.2631853 -0.16484186 0.03332656 -0.08055991
0000c0 de f8 1a bd bd 97 2c be d4 29 02 3e e6 a3 17 3d
       -0.037834994 -0.16854759 0.12711269 0.03702154
0000d0 13 bd 26 bd a7 e5 93 bc 30 3b f7 bd 39 d3 a2 3d
       -0.04070766 -0.018053843 -0.12071836 0.07950444
0000e0 41 39 ff 3d 2a 0f 17 be 45 66 fe 3d 07 82 04 be
       0.12462092 -0.14751878 0.1242185 -0.12940226
0000f0 54 d0 de 3d ea 8f a8 bc c4 b2 99 bd fb 70 07 3c
       0.10879579 -0.020576436 -0.075048 0.008266683
000100 65 04 85 3d f2 cd cd 3d 6b ab 6b be 0a ff 1c be
       0.06494979 0.100490466 -0.2301461 -0.15331665
000110 58 34 0a bd 7f 75 72 3e 77 85 27 3e ee 47 27 3d
       -0.033741325 0.23677634 0.16359507 0.040840082
000120 eb 2a 1a be 56 ea 97 bd e3 c0 c1 bc 4a 1c a1 be
       -0.15055434 -0.07417743 -0.023651546 -0.31466895
000130 fd ea 53 be da 13 8e 3c 25 19 4e 3e 1d d4 37 3e
       -0.2069511 0.01734345 0.2012678 0.17952009
000140 3e 6a b6 3c 29 c8 4f be 27 cd 56 3d eb 15 6a 3e
       0.022267457 -0.20291199 0.052441742 0.22859924
000150 43 d6 ed bc 85 e0 ec 3d d4 f4 da bc 53 90 3e be
       -0.029032832 0.11566261 -0.026728071 -0.18609743
000160 89 8d fe bc 5c 75 b9 3c 2d d4 da bd af 80 9d 3e
       -0.031073349 0.02263897 -0.106850006 0.3076224
000170 1e 5e 9d 3d fb 13 c9 3c 26 43 4b bc e8 25 db bd
       0.07683967 0.02454566 -0.012406146 -0.107005894
000180 4e c0 a2 bd db da 41 3e 4e f6 cd bd 12 9f e1 bd
       -0.079468355 0.18931143 -0.100567445 -0.110166684
000190 a0 6a 35 3d 0a bc 54 3e 93 7c 80 bd 02 c4 4b 3e
       0.04429114 0.20774856 -0.06273761 0.1989899
0001a0 05 2e 15 be 16 11 65 be 75 7e e1 3d ef 29 8a 3e
       -0.14568336 -0.22369799 0.11010448 0.26985118
0001b0 2f 96 93 be 30 e8 fe 3c c8 14 c9 3d bb 41 be bc
       -0.28825518 0.031116575 0.09818417 -0.023224702
0001c0 21 71 71 bc 88 56 1e 3e b6 86 9d bd 9a a7 c3 3d
       -0.014736445 0.15462697 -0.0769171 0.09553452
0001d0 40 2e 18 3d 37 3e ff bd 2a 65 a8 3c 67 ba 59 3d
       0.037153482 -0.124630384 0.020556051 0.053156283
0001e0 4f c7 9b be f5 01 3e 3c 68 ee 86 bc 46 63 40 be
       -0.30425498 0.011597146 -0.016471103 -0.1878787
0001f0 ad 25 e0 bd b2 06 b8 3d 60 57 ff 3d ad 27 a4 3d
       -0.10944686 0.08985652 0.12467837 0.0801538
000200 85 a2 ae 3c 72 10 20 be bb f7 b4 3d 8d c6 d8 3d
       0.02131773 -0.15631273 0.08836313 0.105847456
000210 af fa 03 be 30 f6 aa bd fe 45 63 3d 77 15 3e bd
       -0.12888597 -0.08347738 0.05548667 -0.04640719
000220 d1 34 4c 3d 6b a2 34 3d 52 ba 2c be f2 cf de bd
       0.049855057 0.044100206 -0.1686795 -0.10879506
000230 cd fa 4c 3b 6c d8 39 3e b5 ad bf 3d a8 2b 00 3c
       0.0031277419 0.18148965 0.09359304 0.007822908
000240 a5 e0 94 3c de 78 17 3e ec 3d 17 3e 7a 6e b7 3d
       0.018173525 0.14792201 0.14769715 0.089566186
000250 8a ff 40 be 97 59 ff bd 31 83 c5 3d d8 de 09 be
       -0.1884748 -0.1246826 0.096441634 -0.13463914
000260 be 94 35 be 27 df 14 3e 7d ad 2d bd 19 bf 03 3e
       -0.17732522 0.14538251 -0.04240178 0.12865867
000270 c7 40 13 be 82 43 d9 bd c4 2e a3 bb 6f a9 c3 bd
       -0.1438018 -0.10608579 -0.00497994 -0.09553801
000280 a7 aa 58 bd c1 75 5d be 3e 10 36 be fb 07 97 be
       -0.05289712 -0.21626951 -0.17779633 -0.29498276
000290 b6 2a c4 3d 52 5f 13 be 25 69 12 3e ab 9f 8e 3c
       0.09578459 -0.1439183 0.14297922 0.01741012
0002a0 01 e2 9e 3d 12 8f 28 3e fd c4 e3 3d 19 04 2b 3e
       0.077579506 0.16460827 0.11121557 0.16700782
0002b0 aa 11 1d 3d 10 e7 e1 bd 66 dd 7c be 2d 75 3b 3e
       0.038346924 -0.110304 -0.24693832 0.18306418
0002c0 87 f5 99 3d a2 f3 76 bc d5 db bb bd 6a ca e3 bd
       0.07517534 -0.015072735 -0.09172789 -0.11122592
0002d0 ec 3d ce bd 83 55 00 be ca 74 51 3d d8 36 27 be
       -0.100704044 -0.1253262 0.05113677 -0.16329515
0002e0 2b fe 1a 3e 4f 90 45 3e c3 7c 19 3d 02 3f ac 3d
       0.1513602 0.1929333 0.037472498 0.08410455
0002f0 96 4c 01 3e 68 a1 89 3c 05 4d 5b be 5f 0d 38 3d
       0.12626871 0.016800597 -0.214161 0.044934627
000300 3c 13 88 3c 14 ed 74 bd bf 64 17 3e fe 44 e7 3b
       0.016610734 -0.059796408 0.14784525 0.007057785
000310 71 0e b0 3d c6 a4 fc bc fe df 12 bd be d5 c4 bc
       0.085965045 -0.030840289 -0.035858147 -0.024027701
000320 d9 40 c5 bd 00 ff 14 3d b1 63 e9 3d 5d f6 fb bc
       -0.09631509 0.036376 0.11395968 -0.030757124
000330 7a 8d 44 be 02 22 5c 3d 77 cf a2 3e a8 6a 16 3e
       -0.19194594 0.05374337 0.31798908 0.14689124
000340 55 9d 95 bd 67 18 e0 bd 20 ee 2b 3e 3a 3c 7b bd
       -0.07305399 -0.109421544 0.16790056 -0.061336733
000350 1e 3b b9 bd 62 d5 21 be de 27 f7 3c f6 a0 13 3e
       -0.09044479 -0.15804055 0.030170377 0.1441687
000360 38 8b 7f 3d 1a 86 02 3d 72 a1 25 3d b4 9d c5 3d
       0.06238863 0.03186617 0.04043717 0.0964922
000370 2a a5 17 bd 5c 47 18 be 11 b0 52 3e 6d fc 9f 3e
       -0.037022747 -0.14870971 0.20574977 0.31247273
000380 57 c7 37 3e fe 08 93 bd f2 f0 78 3c a1 99 2b be
       0.17947136 -0.071794495 0.015194165 -0.16757824
000390 4f c0 74 be 3c 37 af bc b5 a3 ca 3c 97 29 3a be
       -0.23901485 -0.021388642 0.024736265 -0.18179928
0003a0 2d f9 d4 bd f9 7a 9e bd ef 96 0a 3e 34 2f 3a 3c
       -0.10399089 -0.07738299 0.13534139 0.011363793
0003b0 c9 99 5d be 6c 7f 18 bd 35 c7 93 bc 8c f7 73 3c
       -0.21640696 -0.037230894 -0.018039325 0.014890563
0003c0 2a 2d 17 3e 62 00 bd 3c ff e3 90 be 5a 88 a9 bc
       0.14763322 0.023071472 -0.28298947 -0.0206949
0003d0 20 6e 09 be 20 4a 60 be 9d 13 54 bd 40 6e c2 bd
       -0.13420916 -0.21903276 -0.051776517 -0.09493685
0003e0 d8 2b 6d 3d bc 78 1a 3e 6e 5c ba bd 03 b7 36 be
       0.05790314 0.15085119 -0.09099661 -0.17843251
0003f0 fb 78 2b 3d 3c db 8e bd 99 3b 85 be fc 0f 6f bd
       0.041863423 -0.069754094 -0.26022032 -0.058364853

conv2.bias f4 [8]
000000 a8 93 49 be 88 60 a9 be 16 d0 c1 be c3 5f 19 be
       -0.19685233 -0.3308146 -0.3785407 -0.14977936
000010 23 c5 b3 bd 3f 2e 00 3e 1d 68 b6 be 81 f5 d0 3d
       -0.08777835 0.12517641 -0.35626307 0.10203076

bn2.weight f4 [8]
000000 57 78 ac 3f 48 41 95 3f 50 22 98 3f 8c 9b aa 3f
       1.3474225 1.1660547 1.1885471 1.3328719
000010 e9 6a 8d 3f 77 f1 97 3f 13 a4 90 3f 0d 5f 8e 3f
       1.1048251 1.1870564 1.1300071 1.1122757

bn2.bias f4 [8]
000000 82 b6 20 bb 42 c2 c8 bd e3 d6 e6 bd e2 05 fb bd
       -0.0024522846 -0.09802677 -0.11271455 -0.122569814
000010 a3 c4 cd bd cc 8a 68 3d cb 39 dd bd 13 9a 7c bc
       -0.10047271 0.056772992 -0.10802039 -0.0154175935

bn2.running_mean f4 [8]
000000 c8 a0 ca be de 14 10 be 9b 6b bd be 34 1e 9f be
       -0.3957579 -0.1407046 -0.3699616 -0.3107773
000010 29 5c cc be d7 6e 80 3e ef 83 2b bf 43 5b f9 be
       -0.39914063 0.25084564 -0.6699819 -0.4870244

bn2.running_var f4 [8]
000000 eb e7 6b 3d c6 bf 83 3d bb 59 48 3c cc 24 43 3d
       0.05759422 0.06433062 0.012228425 0.047642514
000010 fc 58 3b 3d af 72 e7 3c 11 f8 69 3d bf 1b c8 3c
       0.04573916 0.028252928 0.05712134 0.024427293

conv3.weight f4 [8, 4, 3, 3]
000000 09 0e af 3e 71 6d 12 3e b7 76 c4 3d b4 90 6b bc
       0.34190395 0.14299561 0.095929556 -0.014377762
000010 7c 47 1b bd cf 7b e9 3d 4d d3 b9 3e 3a b4 12 3e
       -0.03790997 0.11400568 0.36294022 0.14326563
000020 7c ea fe bd 0e 37 c3 be 24 f0 a7 bc 63 e6 81 3c
       -0.12447068 -0.3812794 -0.02050025 0.015856927
000030 59 bf 9a bc 67 50 49 bd c4 43 84 3d 97 90 13 3d
       -0.01889007 -0.049148943 0.06458238 0.036026563
000040 27 65 e5 3d db 63 72 3d 09 a4 a2 3e 6e e2 61 bd
       0.11200934 0.05917726 0.31765774 -0.05514758
000050 e3 18 47 3d 91 2e 9d bd a6 6c 7c be 06 a0 08 be
       0.04860772 -0.076748975 -0.24650821 -0.13342294
000060 4d dc f1 3e cb 2a 56 3e 7c 62 32 bd 2c d1 2b ba
       0.4723839 0.20914762 -0.043550953 -0.00065543014
000070 d3 c5 1f be e4 b2 c5 3d ba 00 cd 3d 92 d2 17 3e
       -0.15602808 0.09653261 0.10009904 0.1482642
000080 bf e2 e3 3c 05 8e 09 3e 8f 87 0d be 05 2e 5e 3e
       0.027818082 0.13433082 -0.13821243 0.21697243
000090 eb bd a7 3e 6f 6a 84 3d ff 65 c0 3d 46 7f 99 bc
       0.32762083 0.06465613 0.09394454 -0.018737447
0000a0 9c 80 45 bd 36 5a ec 3c c3 96 f0 3d 5d 68 9e be
       -0.048218355 0.02885161 0.117475055 -0.30938998
0000b0 84 60 51 be ce 1b dd bd 13 6b d4 3d cf 19 25 3e
       -0.20446974 -0.10796319 0.10371985 0.16123126
0000c0 1f 6e 8a 3e c2 55 8a 3d 41 ba 99 3d 62 3d f6 3e
       0.2703714 0.06754638 0.07506228 0.48093706
0000d0 c0 2f 30 3e 0c af 71 3e b5 8d 9f 3e 88 7c 9b bd
       0.17205715 0.23601931 0.311628 -0.07592112
0000e0 42 f5 25 3d c5 47 01 bd dd 99 56 bc 43 e7 3a 3e
       0.0405171 -0.031562585 -0.013098207 0.18252282
0000f0 21 e1 f3 bd 38 d6 6b 3d 85 83 d2 3c 27 80 5f 3d
       -0.11908174 0.05757734 0.025697479 0.054565575
000100 1a 12 9f bc c0 b3 92 3e f8 94 71 3e df 8b cb 3d
       -0.019417811 0.28652763 0.23591983 0.09938788
000110 43 e8 7b 3e ef 5c 09 bd d1 59 1f 3e 43 b1 57 3e
       0.2460032 -0.033535894 0.15561606 0.21063714
000120 dc 2b a9 bd 43 e0 0e bd 36 85 fb bd e6 b9 9c be
       -0.08260319 -0.03488184 -0.12281267 -0.3061058
000130 48 f2 62 bd 67 e6 4f bd d1 14 c5 bd 33 85 2c bd
       -0.05540684 -0.05075684 -0.09623111 -0.042119216
000140 4f 43 15 be 36 8c 8f be 19 12 b5 3d 48 96 92 bd
       -0.14576457 -0.2803666 0.088413425 -0.0715757
000150 f3 39 82 3d 61 9e 55 3e d3 ef 98 b9 14 f8 02 3e
       0.06358709 0.20861198 -0.00029170382 0.12789947
000160 0f 7d 95 be e4 64 ad 3a b1 45 8b 3e 90 f7 84 bd
       -0.29196975 0.001322892 0.27201608 -0.06492531
000170 55 3c 90 be ba b1 f2 3d 96 19 6a 3d 07 35 5c 3c
       -0.2817103 0.11850305 0.057153307 0.013440377
000180 12 cb e2 3d ac 6a ad 3c 45 77 05 3e fa c3 97 3e
       0.11073889 0.02116903 0.13033779 0.29641706
000190 a1 07 db 3d 3c ba 82 3e 37 42 e5 3e 53 16 72 3d
       0.106948145 0.2553271 0.4477708 0.05910332
0001a0 93 62 42 3e 75 94 40 be 86 f8 72 bd ae 15 90 bd
       0.18982916 -0.18806632 -0.05931904 -0.07035385
0001b0 77 fa 3a 3e e5 ff b8 3d f8 4d 53 3d f5 93 10 bd
       0.18259607 0.09033183 0.05158803 -0.035297353
0001c0 7d 40 97 3d f7 a7 5e 3e 59 8d 97 3e 82 06 63 3e
       0.07385347 0.21743761 0.29600027 0.22170451
0001d0 41 eb 4b 3e 10 d4 a6 be 7c db ea bd 81 8b e8 bb
       0.19913961 -0.32583666 -0.114676446 -0.0070967083
0001e0 22 62 27 3d 4b 06 7c bd 37 4b 96 3c 02 9c 37 3e
       0.04086507 -0.06152944 0.018346412 0.17930606
0001f0 c6 2a 1e bc e2 33 5f 3e 69 32 69 bd 23 47 21 3e
       -0.009653753 0.21797135 -0.05693284 0.15749793
000200 b1 70 1e bb bf 98 12 3e b4 42 f4 3d d6 d7 c4 bd
       -0.0024176056 0.1431608 0.11926785 -0.0961148
000210 84 81 bb 3d f9 74 2c 3d 45 5e b8 3d 7c 83 0f 3e
       0.091555625 0.04210374 0.090023555 0.14015001
000220 d8 21 cc bd 73 d9 7b bd 9d f8 14 3e b1 a6 4c 3d
       -0.09967393 -0.061486673 0.14547963 0.049963657
000230 7c da 1f 3e 3d 6e 66 3e 22 cc ad 3d e2 b0 db 3c
       0.15610689 0.2250299 0.08486201 0.026817743
000240 8f 39 e6 3d ff d9 5f bd 7b 43 4b 3e 5a 93 9d 3d
       0.11241447 -0.054651257 0.1984996 0.07694121
000250 c1 ae 71 bd 66 bd aa bc ea 21 53 be d3 05 02 be
       -0.05900455 -0.020842265 -0.20618406 -0.12697534
000260 bc c9 38 bc e6 68 b1 be a4 57 91 3c f7 1a bd bd
       -0.011278566 -0.34650344 0.017741986 -0.09233659
000270 ed 92 24 be 3c 1e d6 3e b5 09 be be 71 50 69 3d
       -0.16071673 0.41819942 -0.3711678 0.05696148
000280 92 dc d9 3d 07 94 a3 3e 16 34 86 3d 88 75 8a 3e
       0.106377736 0.31948873 0.06552903 0.27042794
000290 61 93 57 3e 65 30 cd 3e 67 67 76 3e 06 bf 12 3f
       0.21052314 0.40075985 0.24062882 0.5732273
0002a0 59 10 c7 3e 83 4f ad 3c 11 4d f0 3d f6 5f 73 bd
       0.3887966 0.021156078 0.11733449 -0.059417687
0002b0 e2 10 ac bd 64 be 0a be d4 58 2a bc a1 f2 60 3e
       -0.08401658 -0.13549191 -0.010397155 0.21967556
0002c0 67 67 e4 3d 20 60 82 3e 02 85 b0 3d b7 3c 05 3e
       0.11152535 0.25463963 0.08619119 0.13011442
0002d0 e2 f4 5d 3e 44 5f 32 be d1 77 20 be 7e a1 0b be
       0.21675447 -0.17419153 -0.15670706 -0.13635823
0002e0 a1 01 00 3d 9e a3 c3 3d 9a a0 61 3e 27 5c 93 3e
       0.031251553 0.09552692 0.22033921 0.28781244
0002f0 3d c7 78 3e bc 30 9c 3c 1a 20 14 3e 54 7e d0 be
       0.24294753 0.019066207 0.14465371 -0.4072138
000300 b3 4f e6 3d 53 88 31 3e 1c 28 52 3c c0 5c 01 be
       0.1124567 0.1733716 0.012826946 -0.12633038
000310 29 7b 14 be f8 03 10 be f2 62 07 3e aa 16 ae bd
       -0.14500107 -0.14064014 0.13221338 -0.085004166
000320 8c 86 44 3e bb 7c 1f 3e cb 99 ca 3d 7c 1d 38 bd
       0.1919195 0.15574925 0.09892615 -0.044949993
000330 44 2f b1 3d 7e d9 66 3c 03 dd ef 3d b9 cb 6c 3c
       0.08651593 0.01408994 0.117120765 0.014452868
000340 d3 18 0d 3e 59 0a 8a be 16 7b 90 3c 23 f9 e6 bd
       0.13779001 -0.2696102 0.017636817 -0.11277988
000350 3f 80 1c 3e db 7b 46 3d dc 1d 29 be 47 92 00 bb
       0.15283297 0.04845796 -0.16515297 -0.0019618438
000360 cf 6a 68 be dc d3 80 bd e5 cf d5 3d b3 2a 6c 3e
       -0.22696994 -0.06290409 0.10440043 0.23063163
000370 ba 9a 3b 3e 1c f4 85 bd 54 ab 99 bd e0 1e c9 3d
       0.18320742 -0.06540701 -0.07503381 0.09820342
000380 1c cd 41 be a2 98 0b 3e eb 4c 11 bd 65 74 dd 3d
       -0.189259 0.13632444 -0.035473745 0.10813216
000390 5e 20 1f 3d 3c 03 5f 3e 1b 6f 76 3d 5a d5 25 bd
       0.038849227 0.21778578 0.060164552 -0.04048667
0003a0 8d 37 a3 bd ac 19 03 3e 71 8f d0 3d 17 c4 4a 3e
       -0.0796958 0.12802762 0.10183609 0.19801365
0003b0 17 35 9f 3d 13 4d 76 bc 55 b9 08 be ee f9 8a 3e
       0.07773798 -0.015033024 -0.13351949 0.27143806
0003c0 f3 61 c0 bd 50 99 cb bd f4 bf 2a be 89 fa bb 3d
       -0.09393682 -0.099413514 -0.16674787 0.09178645
0003d0 e0 f6 ab 3d 01 3e fa 3d 26 b2 2e 3e d1 3f d0 bc
       0.08396697 0.122188576 0.17060146 -0.025421055
0003e0 a0 71 54 be 63 85 a5 be d8 a8 42 bd 98 6b 05 3e
       -0.2074647 -0.32328328 -0.047524303 0.13029325
0003f0 de 86 ab 3b be 02 03 3d 60 02 98 bd 1d 08 f7 bd
       0.0052345833 0.031985037 -0.07422328 -0.12062094

conv3.bias f4 [8]
000000 69 1a 36 be 56 33 76 be fa ee 8d be 47 89 9b bd
       -0.17783512 -0.2404302 -0.27721387 -0.07594543
000010 6d 42 8d 3c 19 62 62 be 3f fb 4b be f8 9c 46 be
       0.017243588 -0.22107734 -0.19920062 -0.19395816

fc1.weight f4 [16, 480]
000000 3f a8 81 3d 18 a5 6a 3d 94 ad 18 3c 6f 4a f0 bc
       0.063309185 0.057286352 0.009318728 -0.029332368
000010 ad d6 d7 3c 26 2d d1 3c 13 b5 12 3d e6 3a b8 3a
       0.026347483 0.025534224 0.035817217 0.0014055639
000020 90 c4 2c bd df 7b 3c bc 61 91 26 3d 09 4a 2d bd
       -0.042179644 -0.011504143 0.040665988 -0.042306934
000030 ed ec 97 3e 91 40 f1 3d 75 bd c4 3d e3 30 e4 3d
       0.29672948 0.11779893 0.096064486 0.11142137
000040 a5 2e e7 3d 3f 00 29 3e c8 0a 24 3e f6 78 da 3d
       0.112881936 0.16504 0.16019738 0.10667603
000050 27 48 08 3e d0 0f f9 3d b4 f2 fd 3d 4b 5c 81 3c
       0.13308774 0.12161219 0.123998076 0.015791079
000060 4c d4 a2 bb f5 f5 80 3c a9 19 f1 3c 58 25 3c bd
       -0.0049691554 0.015742281 0.029431181 -0.04593405
000070 e8 ad 90 3d d8 41 25 3d d7 2c a5 3c ae f6 2c 3d
       0.0706442 0.040345997 0.020162983 0.04222744
000080 23 f4 23 bb 09 a6 9b 3b 2d cc 46 bc fd c2 35 bd
       -0.0025017343 0.0047500175 -0.01213364 -0.04437541
000090 f3 6c 86 bd 2c 2b 00 bd 77 2a b7 bc 9b 15 8a bc
       -0.06563749 -0.031291172 -0.022359116 -0.016856005
0000a0 7b a9 19 bc d8 03 c4 3c 30 86 03 3c 05 7b 24 bd
       -0.009378786 0.023927614 0.008027598 -0.040156383
0000b0 ce c6 63 bd 5d 45 e8 3c d9 ef a1 3c 7d d4 05 3b
       -0.055609517 0.028353387 0.019767689 0.0020420842
0000c0 32 b7 62 3d a2 3d 7f 3d 56 b3 cb 3c b3 0e 4d bd
       0.05535049 0.062314637 0.024865787 -0.050062846
0000d0 72 e9 47 3d 2c ae 82 3d dd d5 b8 3d e0 f1 34 3d
       0.048806615 0.06380877 0.09025166 0.044175982
0000e0 9b 10 90 3d c3 cd e2 3b ba aa a1 3c 8a 2d 11 3d
       0.07034417 0.0069215014 0.01973473 0.03544382
0000f0 e8 48 27 be 4a 2a ea 3d 09 3d cd bd 0e 46 f0 bd
       -0.16336405 0.11433847 -0.10021407 -0.11732112
000100 a6 a3 64 3d 23 3c a6 3d 4e 6f b4 3d 20 fd 5a bd
       0.05582013 0.08116939 0.08810292 -0.053464055
000110 a9 71 08 3e 8f d8 ab 3c 9f 61 0b 3d 30 4e b9 bd
       0.13324608 0.020977287 0.034028646 -0.09048116
000120 04 b6 99 3c d8 64 76 3c 51 22 d7 3d 53 52 c7 bc
       0.01876355 0.015038691 0.10504592 -0.024331247
000130 25 69 88 3b af be 8e 3d 94 f9 50 3d 2e dc 10 bd
       0.004162925 0.06969964 0.051019266 -0.03536623
000140 4e 0f 6c 3d 37 f3 c5 3d ae 07 55 bd fa d0 e6 ba
       0.057631783 0.0966553 -0.052009277 -0.0017609887
000150 66 c3 5a 3e 1c b7 8b bb eb 6e 87 3d 2c 6e 11 3e
       0.21363601 -0.0042637717 0.06612953 0.14202183
000160 57 54 10 3e e9 06 2b 3e 0f fe 06 3e af e7 fc 3d
       0.14094673 0.16701855 0.13182853 0.12348878
000170 c8 20 2e 3e d7 e7 12 3e 6e b3 e0 3d 2a 83 3f bd
       0.17004693 0.14346252 0.109717235 -0.046755947
000180 a3 f8 a1 3c ae e4 28 3e d0 a9 96 3d f3 39 86 be
       0.01977188 0.16493484 0.07356608 -0.26216087
000190 52 43 63 bd f7 50 2f bd 92 95 60 3d f2 9e b4 3c
       -0.055484124 -0.042801823 0.05483014 0.022048447
0001a0 94 32 1a 3e 2f f4 c0 3c f2 aa 3d be 97 96 16 be
       0.15058357 0.023553936 -0.18522242 -0.14705883
0001b0 0e 6c 57 bc d0 3f 19 bd 97 bd 4a bc 85 61 92 3c
       -0.013148321 -0.037414372 -0.012374303 0.017868767
0001c0 14 76 80 bd cf 22 96 bd 4a 71 33 bd 6f b7 a5 3d
       -0.062725216 -0.07330858 -0.043809213 0.08091628
0001d0 a0 06 15 3e fe 3f b8 3d 36 f2 9d 3d 7e 5c 7d be
       0.14553308 0.089965805 0.07712214 -0.24742314
0001e0 3a fb e9 3d 9f a3 27 bc 38 33 0d 3d 09 7c ea 3d
       0.11424871 -0.010231881 0.034472674 0.11449439
0001f0 38 48 3d 3d 83 90 1b 3d 71 f1 59 be c1 b7 95 3d
       0.04621145 0.037979614 -0.21283509 0.07310439
000200 88 89 e6 bd 60 d1 af 3e 5c 4f 67 3c 41 b2 b9 3b
       -0.11256701 0.34339428 0.014118042 0.0056670015
000210 76 0f 7c 3c 84 91 28 be 4b 57 4d 3e 40 75 23 be
       0.015384546 -0.1646176 0.20052831 -0.15962696
000220 36 e3 e3 bd 61 26 a1 3c 68 a4 08 be dd 48 8f bd
       -0.111273214 0.01967162 -0.13343966 -0.069963194
000230 6f 1f c2 bd b1 5c 9c 3c 94 43 3b be 8b 73 ec 3d
       -0.09478652 0.019087167 -0.18287498 0.115454756
000240 27 3f 20 3f 92 7a e4 3d 3b 96 31 bd 7c af ad bd
       0.6259636 0.11156191 -0.04335616 -0.084807366
000250 b0 db 4d 3e 2d 3b f0 bc ad 80 65 be 3b 72 00 bd
       0.20103335 -0.029325092 -0.22412367 -0.03135894
000260 ae b3 fd bd e8 2c 86 bd 3f d5 f2 bc e0 01 d2 bd
       -0.12387787 -0.06551534 -0.0296427 -0.10254264
000270 f9 ba 5f be c8 b9 2b 3e c4 77 90 bd ab fe f5 bd
       -0.21848668 0.16770089 -0.070540935 -0.12011465
000280 95 47 22 3e 20 0e fc 3d f4 88 5f 3e a1 28 93 3e
       0.15847619 0.12307382 0.21829587 0.28741935
000290 bd 25 7b 3e 6f 07 20 3e 47 1a cd bd 41 ce a0 be
       0.24526115 0.15627836 -0.10014778 -0.3140736
0002a0 a4 fe 0d 3d 24 04 cb bd 1e 81 9d bb 65 9f 1b 3e
       0.034666672 -0.09912899 -0.0048066517 0.15197523
0002b0 91 3a 9b bb 63 78 49 be 0f c3 08 be 65 4e 23 bd
       -0.0047372063 -0.1967483 -0.13355659 -0.039869685
0002c0 be 93 14 bd a7 5b 89 3b 15 e0 55 3d 76 40 3f be
       -0.03627371 0.004191834 0.052215654 -0.18676934
0002d0 4e 74 3a 3d 13 41 7d bb e9 37 77 3d fb c2 29 3d
       0.045521073 -0.0038643524 0.060356054 0.041445713
0002e0 be 56 ce 3c 88 a4 67 bc 53 34 16 3d c2 36 37 bd
       0.025187846 -0.014138348 0.036670994 -0.044729955
0002f0 82 ce fb bb 69 6a 05 ba 56 78 f3 3b 1f b8 3b bd
       -0.0076845298 -0.0005089404 0.0074301166 -0.04582989
000300 e8 29 50 3e 6e c2 50 3e 19 85 1b 3e ab 7a 0c 3e
       0.20328486 0.20386669 0.15187491 0.13718669
000310 ee f9 6c 3e 08 81 17 3e 6e 53 09 3e 07 94 ff 3d
       0.23142216 0.14795315 0.13410732 0.12479406
000320 a9 07 16 3e 11 0c 2e 3e 8b 9a e9 3d eb f2 ee bc
       0.1465136 0.1699679 0.1140643 -0.029168567
000330 99 d5 23 3d b5 67 e9 bc c5 a2 04 bd 52 ef b0 3c
       0.039998624 -0.028491834 -0.03238179 0.021598492
000340 86 6e 9c 3a f7 2e 0a 3d a6 cd c4 bc 06 dc e9 bc
       0.0011934794 0.033736195 -0.024023842 -0.028547298
000350 d5 5c 03 bd 3e 10 03 bc e2 38 7a bc 56 73 41 bd
       -0.032070953 -0.007999478 -0.015272351 -0.047229134
000360 be 0e 60 bd 96 68 4e bc c0 19 34 bd b8 a6 20 bc
       -0.05470156 -0.012598177 -0.04396987 -0.009805374
000370 34 97 3d bb a5 e0 8f 3c 99 4e 79 bd f2 f3 31 3c
       -0.0028929235 0.017563174 -0.060865972 0.010861384
000380 c1 af bf 3c a8 62 85 3c ec f6 2e 3b 52 30 ba 3c
       0.023399236 0.016282395 0.002669747 0.022728119
000390 31 1b 60 bc da 91 67 bc 97 be 48 bc a3 a1 67 3b
       -0.013678358 -0.014133895 -0.012252471 0.0035344146
0003a0 d4 b6 ac 3d 5d 5e 5a 3d fe 7c 1f 3d d5 94 62 3d
       0.08433309 0.053312648 0.03893756 0.05531772
0003b0 c8 de 3c 3d e9 23 af 3d 94 1d 05 3c 35 70 af 3d
       0.0461109 0.08551771 0.008124728 0.08566324
0003c0 76 e0 8e bd e5 99 d2 bd cc a4 c0 bc e4 1e b9 bd
       -0.06976406 -0.10283259 -0.023516081 -0.09039095
0003d0 0c 1c 37 bd 99 8a 78 bc e7 94 f8 bb 14 4e 56 3d
       -0.044704482 -0.015169763 -0.00758611 0.052320555
0003e0 02 c2 b9 bb a2 0a ab bd 02 a4 c1 bd 89 d7 dc bd
       -0.0056688795 -0.083516374 -0.0945511 -0.107832976
0003f0 e9 65 fc bd 17 93 2d be e8 3c 12 be e3 d9 c3 bd
       -0.12324125 -0.16950642 -0.14281046 -0.09563043

fc1.bias f4 [16]
000000 55 31 c0 3b ed e5 65 bc 5d aa 82 3d 91 6b a2 3c
       0.005865256 -0.014031869 0.063801505 0.019826682
000010 12 57 a1 bc 3f 77 dd 3c ab 38 80 3d 71 2e 96 bd
       -0.019694839 0.0270344 0.062608086 -0.07333077
000020 7a 6a ec bc c2 e3 d0 bd 73 64 64 3c 9b 98 a5 bd
       -0.028859366 -0.10199691 0.013939965 -0.08085748
000030 f2 49 cb bb 8f db 77 3d f6 8b 2e bd a6 ec 26 3d
       -0.0062038833 0.06051212 -0.042613946 0.04075303

fc2.weight f4 [16, 16]
000000 05 b9 e8 3d b8 6f 09 3e 44 b3 fd bd ed aa ad be
       0.11363415 0.13421524 -0.12387708 -0.3391947
000010 fd a7 cd 3e 2a 0f da be 11 30 04 3d be 71 85 be
       0.40167227 -0.42589694 0.032272402 -0.2606334
000020 f7 e2 06 3e 82 49 40 3f d8 5b 4b 3e 82 c8 71 3d
       0.13172518 0.75112164 0.19859254 0.05902911
000030 3a d0 bb 3e 41 84 0c bf cc 8e 1e bf d2 62 52 bd
       0.36682302 -0.54889303 -0.6193664 -0.051363774
000040 c5 27 f2 3d 86 d4 7a bc 9f f2 b1 3e fa 47 3b 3f
       0.11823992 -0.015309459 0.34755418 0.731567
000050 fb b5 aa be 67 c9 a1 be e7 d7 37 3e ba 1d 8e be
       -0.33341965 -0.3159897 0.17953454 -0.27757055
000060 28 1b 1c bf 4f b4 da be 67 b9 09 3e 71 2b 5d be
       -0.6097894 -0.4271569 0.13449632 -0.21598603
000070 81 70 5c 3e 43 20 ab bc bc ed cb 3b c0 f2 13 3f
       0.21527292 -0.020889407 0.0062234085 0.5779228
000080 49 0d 0a be da c3 b9 3e 2f 97 57 3e 66 39 0f 3f
       -0.1348163 0.36282235 0.21053766 0.5594696
000090 57 66 a9 be 93 9f 2a bd d3 48 8d 3e 91 74 a5 be
       -0.33085892 -0.041656088 0.27594623 -0.32315496
0000a0 cf 2c f0 be 83 c4 88 3e 70 47 ca be 70 cb fc be
       -0.46909186 0.26712427 -0.39507627 -0.4937396
0000b0 4d 22 06 3f 55 6b cd be 03 27 cd 3c e8 07 d2 3e
       0.5239609 -0.4012095 0.025043016 0.41021657
0000c0 70 7a 9f be 7c 22 26 3f 9b 8b d4 3e 6b fe 2b 3e
       -0.311481 0.6489637 0.4151276 0.16796272
0000d0 3d 7c 8a be b1 6c a6 3e 96 7a 04 3e ba 2a 8f be
       -0.2704791 0.325048 0.12937388 -0.27962285
0000e0 56 de 90 be a0 e6 c2 3e 36 9e 47 bf 5d 6c a2 be
       -0.2829463 0.38066578 -0.77975786 -0.317233
0000f0 53 97 d2 3e 59 52 9b be 94 08 93 3e 94 d9 6a 3e
       0.41131076 -0.30336264 0.28717482 0.22934562
000100 dc dd d8 be 8c a2 5b 3e 02 5a a9 3e 88 a3 69 3e
       -0.42356765 0.21448725 0.33076483 0.22816288
000110 53 86 03 bf 21 6e 1c 3f dc cf a3 3e d8 27 3a be
       -0.5137684 0.61105543 0.31994522 -0.18179262
000120 60 c8 fd be 71 e1 4f 3d 0c c7 5c bf 0b 36 6b be
       -0.49566936 0.050752107 -0.8624122 -0.22969835
000130 1b 45 bd 3e 08 17 c1 be 9a 22 64 3e 86 60 d2 bc
       0.36966786 -0.37712884 0.22278824 -0.025680792
000140 32 7f 10 3e 28 10 aa 3d ef 72 e4 be 90 f0 5f be
       0.14111021 0.08303863 -0.44618937 -0.21869111
000150 15 03 24 3d 83 94 05 bd 8f 38 cd bc 5f 58 92 bd
       0.040042 -0.032612335 -0.025051383 -0.07145762
000160 4c 83 71 3d 04 af 0c 3f 7d db 93 bc dd 0c a0 be
       0.058963105 0.5495455 -0.018048996 -0.31259814
000170 8e 5d f0 3e 57 f0 4f bf 4d 0f 18 bf 49 6c 8d be
       0.46946377 -0.81226104 -0.5939835 -0.27621678
000180 0f 0e 12 3f ad a0 4f bf c0 6c 4c be d6 dd b2 3d
       0.570527 -0.81104547 -0.1996336 0.08733718
000190 38 7c e6 3d 50 64 a1 bc 35 b7 43 bc 9b 36 b0 3d
       0.112541616 -0.019701153 -0.011945535 0.08604165
0001a0 a1 ab 5d be dd 93 bc 3c 95 97 e5 3e c8 e7 94 3d
       -0.21647502 0.023019725 0.4484221 0.07270771
0001b0 a7 c2 fd be 37 11 05 3f 5a 6b ce be 12 70 30 bd
       -0.4956257 0.5197939 -0.40316278 -0.04307563
0001c0 04 8f 58 be 2f 56 2b 3d 57 47 ca 3e 6d 2c cd be
       -0.21148306 0.041830238 0.39507553 -0.40072957
0001d0 90 e1 00 3b a1 66 38 3f 30 d1 85 be b5 3e c4 be
       0.0019665696 0.720316 -0.2613616 -0.38329092
0001e0 f2 b7 d0 bc 93 bf ff bd aa a3 9f 3e 50 d0 4e 3e
       -0.025478337 -0.12487712 0.31179553 0.20196652
0001f0 c9 4f d4 be 88 b9 a0 bc de 5c 93 3e f7 b5 db be
       -0.4146712 -0.019619718 0.2878179 -0.42912266
000200 1d 11 d9 3e 9f a7 24 3e fd 55 06 3e 93 f7 8e 3e
       0.4239587 0.16079567 0.1311874 0.2792326
000210 a8 28 d6 bc 80 9e 17 bf 25 5a 82 3c b7 49 2c be
       -0.026142433 -0.59226227 0.015912125 -0.16824995
000220 52 86 8d be ec fc d6 bd 48 b1 c0 bd d2 83 f9 bd
       -0.2764154 -0.1049746 -0.09408814 -0.12183346
000230 bb 92 1c 3f c9 b1 f1 3e 25 a9 4c be e4 f7 36 3f
       0.6116139 0.47205952 -0.19986399 0.71472
000240 4d a4 d4 3e ed 22 b9 be 7d d3 47 3e 2b a4 ab 3e
       0.41531602 -0.3615946 0.1951427 0.33523688
000250 bc 09 57 3e 69 53 65 bf d5 f9 bc 3d 57 2f 93 bd
       0.20999807 -0.895804 0.09227339 -0.07186764
000260 1f 26 b5 3c bc 3a 5a 3e ae 3e bd 3b 70 c8 a0 be
       0.022112904 0.21311468 0.0057752943 -0.31402922
000270 c0 48 20 be 2d c9 ba 3e 67 7f d1 be ea 3c cf 3d
       -0.15652752 0.3648161 -0.40917513 0.1011904
000280 2a 25 cd be e8 94 2f 3e 55 44 01 be 9a b3 03 3e
       -0.40067416 0.17146647 -0.12623723 0.12861481
000290 cf 5f f4 bd e7 29 1c bf a0 6b be be a1 80 5a 3f
       -0.119323365 -0.6100144 -0.37191486 0.8535252
0002a0 c6 c4 27 3d 74 01 54 be 8a 64 64 3c e5 95 17 3f
       0.040959142 -0.2070368 0.013939986 0.59213096
0002b0 68 b1 80 be 33 67 81 3e df 43 71 be bd a1 10 3e
       -0.2513535 0.25274047 -0.23561047 0.14124198
0002c0 f1 2b 74 3e 4d 79 07 bf 90 ea 6d 3c 8b 7e fb 3d
       0.23844887 -0.52919465 0.014521256 0.122799955
0002d0 53 c5 d3 3b fc e7 04 bf a5 42 ed 3e 00 df ee be
       0.006462732 -0.5191648 0.46339908 -0.4665451
0002e0 61 ee 45 be a8 67 20 be 6c 7f cf 3e 9c ca 07 bf
       -0.19329216 -0.15664542 0.40526903 -0.5304353
0002f0 d4 de 93 be 52 bf 02 3f 1c 18 df be 88 c4 f6 3d
       -0.28880942 0.5107318 -0.43573081 0.12049204
000300 6c 2e 91 3d 23 af 84 3c d6 93 f9 bd 79 00 67 be
       0.070889324 0.016196793 -0.121864006 -0.22558774
000310 63 83 3f 3f f7 45 ac 3e e2 27 ae 3e 15 51 ec bd
       0.74809855 0.3364713 0.34014803 -0.11538903
000320 f2 9e 64 3e bc 63 0d 3f d7 8c c4 3d bb c6 b6 3d
       0.22326258 0.5523031 0.095971756 0.089246236
000330 04 5e 33 be 02 a9 40 bf 53 d3 78 3d d7 5e d6 be
       -0.17516333 -0.75257885 0.06074841 -0.41869232
000340 50 ee 09 bb 43 c8 54 3e 17 9b 29 bf 7a c7 8d be
       -0.0021046586 0.20779519 -0.66252273 -0.2769125
000350 f9 51 f7 3e 9f 06 ac 3c 52 45 8f be 61 5f a5 3e
       0.48304728 0.020999251 -0.27982575 0.3229933
000360 ca 3f 7f 3e bc 2d 5b 3f 4d 52 b1 be f1 1a 43 3d
       0.24926677 0.8561666 -0.34633103 0.047633115
000370 38 ee e1 3e 3e 3c 72 bf 56 0d e7 be a4 0f 0d bd
       0.4412706 -0.9462317 -0.45127362 -0.034438744
000380 2d 36 f3 be d4 a4 8e 3e 0a 7d 0f 3e b9 01 e6 be
       -0.4750227 0.2786013 0.14012542 -0.4492319
000390 8e 41 0e be e2 36 38 3f f0 84 bf be 62 b7 0c bd
       -0.13892195 0.71958745 -0.3740611 -0.034354575
0003a0 47 e7 07 3e 48 cb ef 3e c0 13 64 be ec c5 61 3f
       0.13271819 0.4683478 -0.22273159 0.8819263
0003b0 38 11 17 bd 4c 19 44 bf ac 12 8f 3e bf 98 03 bf
       -0.036881655 -0.766011 0.27943933 -0.5140495
0003c0 36 82 1e 3f 1a 38 21 bf 66 29 21 3f ea 50 5a 3e
       0.61917436 -0.6297623 0.62953794 0.21319929
0003d0 be 60 08 3e 5d a6 d7 3e 43 c2 d6 3e 41 09 6a bf
       0.13318154 0.42119113 0.41945085 -0.9142037
0003e0 ce 1a 73 3e 1c 64 fb 3d 9c bb 9e 3e b2 b3 b3 be
       0.23740694 0.12274954 0.3100251 -0.35098034
0003f0 e4 ee cf bd 23 48 69 3e ba 00 6e be a2 3e 7e be
       -0.10152987 0.22781424 -0.23242465 -0.2482858

fc2.bias f4 [16]
000000 65 70 90 3d 59 e6 bc 3d aa cc b4 bc 47 a8 4b be
       0.070526876 0.09223623 -0.022070248 -0.19888411
000010 14 e8 45 bd c6 8b 81 3e dc a6 5e 3d cb 53 a4 3e
       -0.04831703 0.2530195 0.05435835 0.3209518
000020 c0 33 55 bd 5a eb f5 bd 4a 94 72 3d 50 46 b9 bd
       -0.052051306 -0.120077804 0.05922345 -0.09046614
000030 68 92 a6 3d a6 4c 6e 3d 5c f5 7f 3e ba f8 1e 3e
       0.081333935 0.058178566 0.24995941 0.15524569

fc3.weight f4 [2, 16]
000000 b8 e6 4e 3f c7 69 21 3f 9b e7 4e 3f 93 40 5e 3f
       0.808208 0.6305203 0.8082215 0.8681728
000010 73 2f 16 3f 5c eb 40 3f 08 19 1f bf 6e b4 73 bf
       0.5866615 0.7535913 -0.6214757 -0.9519719
000020 a8 e9 2f 3f 87 a2 5f 3f 02 22 02 bf 4a 48 79 3f
       0.68715906 0.8735737 -0.5083314 0.9737593
000030 e2 01 dd 3e 23 d0 27 3f 55 5d 53 bf 39 b6 46 3f
       0.431655 0.65551966 -0.8256429 0.776218
000040 cf 67 3c bf e6 0d 0f 3f 90 21 1d 3f 5e d2 39 3f
       -0.735959 0.5588058 0.6137934 0.7258662
000050 d2 67 62 3f a5 8a 37 bf 3e 41 8f bf 89 91 86 be
       0.8843967 -0.7169593 -1.1191785 -0.2628291
000060 95 3e 22 3f ba f8 0d bc 1b 43 97 3f 4b 62 a8 be
       0.6337674 -0.008665258 1.1817354 -0.32887492
000070 73 e3 55 bf 79 cf 49 bf 97 10 3e bd fe a2 80 bf
       -0.83550185 -0.78832203 -0.04640254 -1.0049741

fc3.bias f4 [2]
000000 f4 18 b5 3e 1d f9 29 3e
       0.353706 0.16598935
