best_model2/best_model_vision.pth (torch, 41944 bytes, 20 tensors)

features.0.weight f4 [8, 1, 3, 3]
-0.35398322 -0.13686912 -0.12655042 -0.12452587 0.09920045 -0.1539551 0.48180524 -0.076856054
0.27885717 -0.527946 -0.08341299 0.55497515 0.11356109 0.059455242 0.10377385 -0.28325856
0.20914182 0.24969846 0.47282115 0.16895068 -0.55000275 0.15113692 -0.30258566 0.1419187
-0.26144934 -0.05462014 0.2594577 -0.09489003 -0.04478978 0.3873238 0.55004346 -0.16962121
-0.43558654 0.213935 0.06548453 -0.342138 -0.08294773 -0.07645246 -0.12665193 0.028936228
0.048364043 -0.15077388 0.065718815 -0.17400599 -0.2880046 -0.16975324 -0.3267766 -0.29327577
-0.04784604 -0.27596623 -0.06556531 -0.017683864 -0.19924681 0.052451096 0.59240776 0.009034702
-0.51506805 -0.09428566 0.21511142 -0.3331641 -0.019174738 0.28859058 0.11361998 -0.042779922
-0.23844421 -0.3207999 0.010591229 -0.2947253 -0.10904356 0.19628601 -0.18016398 -0.16193423
00000000: 4a3d b5be 6b27 0cbe 6f96 01be 6b07 ffbd
00000010: 9b29 cb3d 68a6 1dbe 2daf f63e b566 9dbd
00000020: 5ec6 8e3e 7827 07bf 6ed4 aabd da12 0e3f
00000030: b792 e83d 5787 733d 6287 d43d 4407 91be
00000040: 4629 563e f4b0 7f3e 9d15 f23e 6801 2d3e
00000050: fbcc 0cbf a3c3 1a3e 82ec 9abe 2353 113e
00000060: b0dc 85be 5eb9 5fbd a4d7 843e b455 c2bd
00000070: 7d75 37bd 4e4f c63e a6cf 0c3f 2fb1 2dbe
00000080: 3305 dfbe c711 5b3e c11c 863d b62c afbe
00000090: 80e0 a9bd 1b93 9cbd 0bb1 01be ab0b ed3c
000000a0: 6019 463d 7864 1abe 9697 863d a02e 32be
000000b0: 5775 93be cbd3 2dbe 434f a7be 3e28 96be
000000c0: 36fa 43bd 724b 8dbe 1b47 86bd c0dd 90bc
000000d0: 5b07 4cbe f6d6 563d 09a8 173f 4906 143c
000000e0: 80db 03bf d718 c1bd 2b46 5c3e 7c94 aabe
000000f0: 5714 9dbc 25c2 933e 98b1 e83d 003a 2fbd
00000100: b82a 74be e23f a4be d686 2d3c 3ce6 96be
00000110: 3b52 dfbd 33ff 483e e87c 38be 16d2 25be

features.0.bias f4 [8]
-0.13917151 0.28023833 0.24430364 -0.036957793 0.0055314302 -0.17938265 -0.051545616 -0.2514914
00000000: fa82 0ebe 667b 8f3e bc2a 7a3e 0e61 17bd
00000010: 0041 b53b 16b0 37be 7f21 53bd 7bc3 80be

features.2.weight f4 [8]
0.5445073 0.8810533 1.0053394 1.1920683 1.0 1.0 1.1817929 1.0
00000000: d564 0b3f b68c 613f f6ae 803f b295 983f
00000010: 0000 803f 0000 803f fd44 973f 0000 803f

features.2.bias f4 [8]
0.18758167 -0.063845076 0.16739517 0.15801063 0.0002774329 -0.2115537 -0.0035457746 -0.026300417
00000000: 6915 403e 35c1 82bd a469 2b3e 8acd 213e
00000010: 6a74 9139 88a1 58be 3a60 68bb f973 d7bc

features.2.running_mean f4 [8]
0.0004472136 0.53811336 0.27000937 0.062551 0.0 0.0 0.11961276 0.0
00000000: fe77 ea39 ccc1 093f ab3e 8a3e bd1a 803d
00000010: 0000 0000 0000 0000 89f7 f43d 0000 0000

features.2.running_var f4 [8]
7.847017e-05 0.017175732 0.002913771 0.0033240905 6e-45 6e-45 0.0072001205 6e-45
00000000: 5a90 a438 1fb4 8c3c f7f4 3e3b fcd8 593b
00000010: 0400 0000 0400 0000 fdee eb3b 0400 0000

features.3.weight f4 [8, 4, 3, 3]
-0.6222993 0.06717434 -0.33687916 0.07621471 -0.0626036 -0.24196526 -0.35224393 -0.09382045
0.036020976 -0.079977736 0.2048763 0.049682476 -0.11990219 0.005790494 0.30945662 0.12912217
0.26648867 -0.11670265 0.41003218 0.053598482 -0.06442986 0.43155268 0.13812846 -0.3580696
-0.6637919 -0.14858977 0.1610291 0.35439262 -0.056656465 -0.41780332 -0.20297548 0.14185174
0.3750577 -0.07620791 0.0077224434 -0.18068518 0.19679552 -0.06420807 -0.12539563 -0.11078879
0.1647015 -0.15807134 -0.34100595 0.10998092 -0.09344392 0.17341453 -0.15366144 -0.006999659
0.20666757 0.098847546 -0.19064453 -0.03049796 -0.1492956 -0.13892874 0.08754601 -0.14291854
-0.1745411 -0.015834192 0.34330162 -0.1668306 0.09054617 -0.004102775 -0.11132266 -0.08185251
0.12480163 0.11383559 -0.6607119 0.04416291 0.26329133 -0.41798916 -0.0326071 0.75309056
-0.0483045 0.087375775 -0.050476644 0.1359597 0.059925567 -0.110867195 -0.3475079 -0.10613296
-0.097365126 0.1572591 0.13326947 -0.2966904 0.18976474 0.1000128 -0.13169253 0.41003686
0.19433028 -0.22931378 0.047591794 0.54679024 -0.103225045 0.22728392 -0.049113557 -0.45283577
-0.32831147 -0.3395186 0.20285502 0.1020969 -0.05858715 -0.031674758 -0.3180554 0.049238134
0.4832379 0.2401699 0.20765719 0.14692561 0.03218437 0.06793343 -0.15842669 -0.4605365
-0.18060592 -0.58232653 -0.06189924 -0.27718976 -0.30523008 -0.60855764 -0.08128451 -0.18194225
0.44739226 0.106080495 -0.68688637 -0.4400914 -0.24997185 -0.28432393 -0.093120955 -0.27122477
-0.06375188 -0.06449625 -0.14792702 0.0726624 0.36937737 0.25926447 0.026997492 -0.08958275
0.200569 -0.15697795 0.1901155 0.29505977 -0.13733396 -0.3069063 -0.051063467 0.08083728
-0.011028072 -0.02842217 0.059045784 0.119028986 -0.139926 -0.19194585 0.08586885 0.055367317
0.050556127 -0.1576002 0.027324168 0.021275373 -0.09895183 -0.09716585 -0.12486015 -0.18477362
-0.13607477 -0.13504359 -0.0021773302 -0.15539578 -0.5057873 -0.44989225 0.37902707 -0.033774767
-0.107397795 -0.05111851 0.23460144 0.15572578 -0.08887461 0.10541482 0.08298345 -0.02958561
-0.08230868 -0.059724707 -0.077693015 -0.006469096 -0.06875097 -0.17634101 0.037990756 0.1286741
0.03596719 0.006861763 -0.024230685 -0.06560952 0.11783812 -0.19040567 -0.3518162 -0.21590456
-0.2251729 -0.09051483 -0.23588827 -0.37157264 -0.0680056 -0.35208663 0.30034968 0.057476953
-0.24159402 -0.3111902 -0.036262393 0.47388285 -0.18799202 -0.17999357 0.024412503 -0.077884376
-0.09428902 -0.07784842 -0.12531537 0.054117102 0.02286973 0.0040126066 -0.13117114 -0.12269098
0.14401759 -0.07100521 0.13397662 0.026645424 -0.052480634 -0.014025537 -0.17897192 0.030008938
-0.015836066 -0.34268558 -0.44330907 -0.30565256 -0.23973498 -0.1675289 -0.2641864 -0.21025684
-0.23597047 -0.28136152 0.39173248 -0.14778201 -0.2891121 -0.11687301 -0.015434419 0.020955639
0.35508803 -0.00874251 -0.3433624 -0.032046504 -0.17409085 -0.23531784 -0.018963752 -0.021642799
-0.09590718 0.016622381 -0.07796067 -0.16773537 -0.08357806 -0.047004327 0.13427536 0.13451593
00000000: 024f 1fbf b392 893d 6d7b acbe 7516 9c3d
00000010: 5136 80bd bec5 77be 5159 b4be f024 c0bd
00000020: bb8a 133d 5ecb a3bd 18cb 513e da7f 4b3d
00000030: 488f f5bd 2fbe bd3b 1971 9e3e 9a38 043e
00000040: 3471 883e cd01 efbd bdef d13e 158a 5b3d
00000050: cdf3 83bd 79f4 dc3e 8c71 0d3e e654 b7be
00000060: 44ee 29bf eb27 18be d0e4 243e f372 b53e
00000070: 9c10 68bd 51ea d5be ced8 4fbe 9541 113e
00000080: 9007 c03e e512 9cbd 8d0c fd3b 8905 39be
00000090: c484 493e 857f 83bd b667 00be 3ce5 e2bd
000000a0: 83a7 283e 74dd 21be 5598 aebe ad3d e13d
000000b0: 875f bfbd 9493 313e 6d59 1dbe 655d e5bb
000000c0: aaa0 533e 9570 ca3d 5238 43be dcd6 f9bc
000000d0: f2e0 18be 5643 0ebe 534b b33d 3d59 12be
000000e0: e7ba 32be b5b6 81bc 3bc5 af3e a4d5 2abe
000000f0: 4570 b93d 9270 86bb 23fd e3bd 4aa2 a7bd
00000100: ff97 ff3d a222 e93d 6a24 29bf 2be4 343d
00000110: 1fce 863e ad02 d6be 068f 05bd 8bca 403f
00000120: f0da 45bd 12f2 b23d 99c0 4ebd 0539 0b3e
00000130: 8374 753d 570e e3bd 8eec b1be 3d5c d9bd
00000140: 5e67 c7bd 8808 213e cb77 083e cee7 97be
00000150: b051 423e 83d3 cc3d 68da 06be 5af0 d13e
00000160: 84fe 463e 3bd1 6abe 9def 423d 72fa 0b3f
00000170: a767 d3bd 1ebd 683e 4c2b 49bd 17da e7be
00000180: 7118 a8be 62d5 adbe 3ab9 4f3e 2e18 d13d
00000190: 14f9 6fbd 64bd 01bd 28d8 a2be edad 493d
000001a0: f56a f73e 19ef 753e 16a4 543e ab73 163e
000001b0: c2d3 033d af20 8b3d 9b3a 22be 71cb ebbe
000001c0: c2f0 38be 5a13 15bf 0f8a 7dbd d1eb 8dbe
000001d0: 1e47 9cbe 6fca 1bbf 7e78 a6bd 124f 3abe
000001e0: 9910 e53e bb40 d93d c9d7 2fbf a953 e1be
000001f0: 9ff8 7fbe e892 91be 33b6 bebd f9dd 8abe
00000200: 5890 82bd 9c16 84bd 2e7a 17be 06d0 943d
00000210: 081f bd3e 50be 843e d829 dd3c 2977 b7bd
00000220: f661 4d3e d4be 20be a3ad 423e 1312 973e
00000230: 46a1 0cbe d322 9dbe ed27 51bd 048e a53d
00000240: 16af 34bc 9cd5 e8bc fed9 713d 78c5 f33d
00000250: c348 0fbe 748d 44be 02dc af3d d7c8 623d
00000260: f113 4f3d f261 21be efd6 df3c b149 ae3c
00000270: 42a7 cabd e4fe c6bd aeb6 ffbd 4c35 3dbe
00000280: 2f57 0bbe de48 0abe 8ab1 0ebb 1220 1fbe
00000290: 477b 01bf 4758 e6be d60f c23e 6957 0abd
000002a0: 60f3 dbbd a561 51bd 5c3b 703e 9476 1f3e
000002b0: e403 b6bd bae3 d73d 3af3 a93d 855d f2bc
000002c0: 7491 a8bd e5a1 74bd 841d 9fbd b6fa d3bb
000002d0: 4fcd 8cbd bd92 34be 329c 1b3d 25c3 033e
000002e0: 5552 133d a4d8 e03b 6e7f c6bc 495e 86bd
000002f0: 1d55 f13d b4f9 42be 4121 b4be 1616 5dbe
00000300: ba93 66be d75f b9bd b28c 71be c53e bebe
00000310: 8546 8bbd b344 b4be 6fc7 993e f46c 6b3d
00000320: 6c64 77be 5254 9fbe e087 14bd c6a0 f23e
00000330: fb80 40be 3c50 38be bbfc c73c d881 9fbd
00000340: 9a1a c1bd fe6e 9fbd ac52 00be e5a9 5d3d
00000350: 4d59 bb3c 2f7c 833b ba51 06be 6945 fbbd
00000360: 5979 133e 2e6b 91bd 2b31 093e 8147 da3c
00000370: eff5 56bd 5ecb 65bc 6a44 37be 4ed5 f53c
00000380: a3ba 81bc 7c74 afbe 68f9 e2be 7e7e 9cbe
00000390: 167d 75be b28c 2bbe 7143 87be 924d 57be
000003a0: 3ea2 71be 9e0e 90be 2991 c83e 2b54 17be
000003b0: 8006 94be 1e5b efbd a5e0 7cbc 29ab ab3c
000003c0: 19ce b53e bf3c 0fbc 32cd afbe 3243 03bd
000003d0: df44 32be 29f7 70be df59 9bbc 3d4c b1bc
000003e0: fc6a c4bd a92b 883c d8a9 9fbd d2c2 2bbe
000003f0: f92a abbd 9c87 40bd 7b7f 093e 8bbe 093e

features.3.bias f4 [8]
-0.6027846 0.083700545 -0.32894406 0.07873716 0.055176757 0.2680539 0.43773043 0.22479053
00000000: 1750 1abf 316b ab3d 5b6b a8be f340 a13d
00000010: 0601 623d 5c3e 893e 341e e03e 7d2f 663e

features.5.weight f4 [8]
1.3998766 0.9147948 0.63116384 1.0597574 0.86376095 0.95234513 0.96926063 0.92097723
00000000: 282f b33f fe2f 6a3f f493 213f 21a6 873f
00000010: 701f 5d3f e4cc 733f 7721 783f 2ac5 6b3f

features.5.bias f4 [8]
0.37584725 -0.23072632 -0.20263726 -0.40821776 0.5127303 -0.1580494 -0.04449921 -0.5640861
00000000: 0d6f c03e 8543 6cbe 2480 4fbe eb01 d1be
00000010: 4b42 033f b4d7 21be ce44 36bd f267 10bf

features.5.running_mean f4 [8]
0.10273371 0.3012127 0.35616532 0.7225015 0.4518948 0.81632954 0.9624733 0.9368304
00000000: 0d66 d23d 8d38 9a3e 4d5b b63e dcf5 383f
00000010: c15e e73e f9fa 503f a664 763f 1ed4 6f3f

features.5.running_var f4 [8]
0.29502603 0.48878774 0.56833535 1.0669938 0.30988216 0.112415515 0.113327 0.34577897
00000000: a70d 973e 6342 fa3e 6d7e 113f 4193 883f
00000010: e0a8 9e3e 1b3a e63d fc17 e83d f109 b13e

features.6.weight f4 [8, 4, 3, 3]
0.085805535 -0.07716618 -0.016363118 0.23727877 -0.61851406 -0.0990338 0.26368213 -0.08164956
-0.15912335 0.02562726 -0.2376511 -0.2709773 0.17377618 0.16709562 -0.13447489 0.034923773
0.17490068 -0.17036772 -0.12259471 0.024734657 -0.10080844 -0.14125943 0.0044377157 0.09540883
0.068764955 0.042623412 0.16836895 0.14903636 0.41298056 -0.11774342 -0.028369095 -0.00371547
-0.27758706 -0.5581003 0.021562746 0.521611 -0.026069157 -0.13630582 -0.46960565 -0.113270484
0.040656276 -0.40902758 0.74073964 -0.41675627 -0.3732322 -0.4419631 0.3858256 0.07211861
-0.061873663 -0.03787325 0.2810148 -0.07879309 0.4280301 0.22968046 0.13107799 0.028433317
0.05189677 -0.26456454 0.70427346 -0.0047007767 0.47086027 -0.2896635 0.4432837 0.44348547
0.020613363 -0.06512145 0.37232953 -0.3512941 0.0735672 -0.45203125 0.12451715 0.26898968
-0.15267968 -0.41117173 0.024210077 0.5857815 -0.3949472 -0.28219357 -0.011744537 0.078993656
0.06387017 0.5567442 0.04412894 -0.3304249 -0.413062 -0.026570454 -0.017881544 -0.12739274
0.10467069 -0.01185034 0.24812779 -0.03750327 -0.23259826 0.2771833 -0.0529629 -0.20508826
0.08008644 0.054569095 0.12246873 0.22794093 -0.18888082 -0.44151515 -0.1945482 -0.076914534
0.2331055 0.26652846 0.24034594 0.06696093 -0.074293815 0.100777544 -0.2075209 -0.18548073
-0.18038735 -0.16537942 -0.26000538 -0.31045905 0.073481984 -0.119147256 0.08015225 -0.24953613
0.50681084 0.35791126 0.1226568 0.39254957 -0.015877768 0.335533 0.09383693 0.2638375
0.046148878 0.3695503 0.85220605 0.1692855 0.23049591 0.4257396 0.15737146 -0.15214908
0.32572907 0.14062493 0.13366432 -0.01615914 -0.16990185 0.14982942 0.46607482 0.39535075
-0.030406807 0.09977384 0.28465122 0.08840246 -0.60238904 -0.29659656 -0.03381973 -0.4223872
-0.28260624 0.063552685 0.31737617 -0.27123472 0.18985732 -0.60186374 0.36097977 0.09985514
0.28114554 0.06562906 -0.15988994 0.08455721 0.09628305 0.05525136 -0.6705837 -0.34543332
-0.39951435 0.14870161 0.05421853 0.19620287 0.20963997 -0.10852561 -0.033988085 0.29474375
0.31054568 0.81200075 -0.281291 -0.23291305 -0.1816325 0.03785789 0.42273524 -0.37447685
-0.096314505 -0.2628572 0.030128153 -0.23295784 -0.27571788 -0.29013702 0.30211386 0.011096506
0.5106427 -0.23925734 -0.1098411 0.17208265 -0.109753974 -0.09710497 0.044298757 -0.17834203
-0.31368324 0.6726 -0.1526955 -0.2833137 0.050746042 0.04762607 -0.024280928 -0.26103005
0.22614117 0.14010148 -0.32806993 -0.045990936 0.4147882 -0.04464789 0.09756937 -0.19984718
-0.04394906 -0.2507649 0.03118484 0.14595015 0.036682688 -0.23953915 -0.3826069 -0.12803185
-0.18351363 0.21653394 -0.014141432 0.08731105 -0.114846334 0.27419442 0.1417087 -0.40111148
-0.14601511 -0.13186294 -0.12843171 -0.10947093 -0.0047185877 0.3423963 0.012729504 -0.12443332
0.34268525 0.39092168 -0.39128226 0.13782729 0.038925443 0.1426736 -0.035701115 0.06936235
0.10240079 -0.6711712 0.045174103 0.1397433 0.27834663 -0.029603276 -0.15969408 -0.15013221
00000000: d0ba af3d 4d09 9ebd f20b 86bc 35f9 723e
00000010: f056 1ebf 3cd2 cabd 5801 873e e237 a7bd
00000020: 3bf1 22be 42f0 d13c cf5a 73be 89bd 8abe
00000030: 62f2 313e 1d1b 2b3e c9b3 09be 3b0c 0f3d
00000040: 2a19 333e e074 2ebe ef12 fbbd 56a0 ca3c
00000050: a874 cebd 50a6 10be 426a 913b b465 c33d
00000060: a4d4 8c3d e395 2e3d e968 2c3e fd9c 183e
00000070: 3072 d33e 7623 f1bd 4e66 e8bc 3e7f 73bb
00000080: e41f 8ebe a9df 0ebf 5ba4 b03c 4c88 053f
00000090: fc8e d5bc c193 0bbe 2770 f0be 5bfa e7bd
000000a0: 3287 263d 106c d1be 1da1 3d3f 1461 d5be
000000b0: 4a18 bfbe fd48 e2be ef8a c53e ecb2 933d
000000c0: 3d6f 7dbd fb20 1bbd 2ce1 8f3e 465e a1bd
000000d0: c326 db3e 5b31 6b3e 4f39 063e fdec e83c
000000e0: b591 543d 0175 87be 444b 343f f908 9abb
000000f0: 9914 f13e c64e 94be 15f6 e23e 8710 e33e
00000100: 5bdd a83c 655e 85bd faa1 be3e d2dc b3be
00000110: 66aa 963d a470 e7be d902 ff3d 04b9 893e
00000120: 1058 1cbe 1a85 d2be 3654 c63c c7f5 153f
00000130: 8536 cabe ad7b 90be 296c 40bc 6dc7 a13d
00000140: 5dce 823d ca86 0e3f 8cc0 343d 742d a9be
00000150: dd7c d3be 48aa d9bc 517c 92bc 3e73 02be
00000160: 965d d63d ee27 42bc 3615 7e3e 079d 19bd
00000170: 3d2e 6ebe f8ea 8d3e a0ef 58bd a802 52be
00000180: 5c04 a43d d883 5f3d e3d0 fa3d 5969 693e
00000190: f969 41be 460e e2be a537 47be 5e85 9dbd
000001a0: 35b3 6e3e 6b76 883e 3f1d 763e d022 893d
000001b0: 5b27 98bd 7564 ce3d 5c80 54be a9ee 3dbe
000001c0: 76b7 38be 3959 29be 6d1f 85be 7df4 9ebe
000001d0: b97d 963d 7a03 f4bd dd26 a43d 6686 7fbe
000001e0: 5bbe 013f 2540 b73e 7d33 fb3d 42fc c83e
000001f0: 1812 82bc fbca ab3e 942d c03d b515 873e
00000200: 9b06 3d3d b235 bd3e 2d2a 5a3f 2e59 2d3e
00000210: 1f07 6c3e 8afa d93e fc25 213e f8cc 1bbe
00000220: f6c5 a63e fbff 0f3e 4ddf 083e 2c60 84bc
00000230: c0fa 2dbe e26c 193e 5ca1 ee3e 6a6b ca3e
00000240: b217 f9bc 3a56 cc3d cebd 913e 590c b53d
00000250: 2b36 1abf 81db 97be 8f86 0abd 2343 d8be
00000260: c4b1 90be e927 823d 217f a23e 47df 8abe
00000270: f569 423e be13 1abf 57d2 b83e da80 cc3d
00000280: 4ff2 8f3e 8768 863d 30ba 23be 552c ad3d
00000290: 0c30 c53d 404f 623d 60ab 2bbf a3dc b0be
000002a0: 258d ccbe 3c45 183e 4014 5e3d 68e9 483e
000002b0: dcab 563e ad42 debd 1737 0bbd a7e8 963e
000002c0: d8ff 9e3e 48df 4f3f 6005 90be c280 6ebe
000002d0: dffd 39be e010 1b3d c170 d83e 6ebb bfbe
000002e0: 8a40 c5bd 3895 86be 51cf f63c 808c 6ebe
000002f0: e52a 8dbe d78c 94be abae 9a3e 1fce 353c
00000300: 7bb9 023f e0ff 74be 5ff4 e0bd 6f36 303e
00000310: b1c6 e0bd f8de c6bd 9d72 353d 4b9f 36be
00000320: 179b a0be 832f 2c3f 365c 1cbe 7e0e 91be
00000330: 15db 4f3d 8e13 433d cce8 c6bc bba5 85be
00000340: 8d91 673e c376 0f3e c8f8 a7be fe60 3cbd
00000350: 1e5f d43e b5e0 36bd 73d2 c73d bda4 4cbe
00000360: ee03 34bd 4264 80be 5977 ff3c f573 153e
00000370: 9640 163d c049 75be 0de5 c3be c81a 03be
00000380: ffea 3bbe 13bb 5d3e 77b1 67bc 23d0 b23d
00000390: 8e34 ebbd 3663 8c3e 161c 113e 7c5e cdbe
000003a0: fc84 15be 1407 07be 9a83 03be 4c32 e0bd
000003b0: 629e 9abb 914e af3e 698f 503c e5d6 febd
000003c0: 7174 af3e e326 c83e 2656 c8be 9922 0d3e
000003d0: 4970 1f3d 0719 123e 553b 12bd d90d 8e3d
000003e0: 81b7 d13d e0d1 2bbf 7b08 393d de18 0f3e
000003f0: 7383 8e3e 9282 f2bc d886 23be 42bc 19be

features.6.bias f4 [8]
-0.18431951 -0.70927507 -0.5310509 -0.37308908 -0.47845685 -0.5028839 -0.2994094 -0.07924692
00000000: 41be 3cbe 0d93 35bf f4f2 07bf 8805 bfbe
00000010: 4cf8 f4be 00bd 00bf 304c 99be 364c a2bd

fc1.weight f4 [16, 480]
-0.03762898 0.0796076 0.20974617 -0.04681504 0.15281159 0.27707008 0.041475352 -0.2614683
0.21931806 0.26397073 -0.0552964 -0.18223923 0.01544678 -0.008173681 -0.060928844 0.22221607
0.004076973 0.0015678601 -0.2017933 -0.11692264 -0.14929295 -0.13869831 -0.07558716 0.24755606
-0.121880405 0.031476513 0.027574154 0.200314 -0.058713093 -0.022546617 0.06383147 -0.13029084
-0.06657697 -0.08261963 -0.055795655 0.1005077 -0.037156302 0.122749835 -0.0033663725 -0.0023718288
0.042992588 -0.007870865 0.020581592 0.014054789 0.094296955 0.26162302 0.06597906 0.025326865
0.22019462 -0.075086065 0.09738704 -0.026015513 0.16843553 -0.077001736 0.13211845 0.21285808
-0.21475165 -0.024809605 0.017691834 -0.06993626 0.085342936 0.5678531 0.05024631 0.23394817
-0.11423617 -0.06367192 0.007094822 0.032170523 0.03280324 0.047576506 0.06324808 0.08098838
-0.01642784 0.009136336 0.037337918 -0.0053839125 -0.04942066 -0.087946445 -0.020300416 -0.022296468
0.03562789 -0.076383285 0.1132169 -0.0025158531 0.017412944 -0.04330071 0.046829585 -0.030117463
0.0074194255 -0.009091086 -0.063615106 0.021730365 0.037901603 -0.047215562 -0.0536468 0.00664344
0.06249757 -0.10301808 -0.05104602 -0.21580529 -0.17188102 -0.112121336 -0.30581242 -0.20360644
0.17928879 -0.084964424 -0.013873107 0.02294901 0.16034247 0.24726069 0.17797641 0.17389725
-0.018313136 -0.45973462 0.36653948 -0.91240877 0.13501363 -0.3134145 0.121574216 0.206338
-0.17209658 0.12204423 0.13638559 -0.069099635 0.15154551 0.018515917 -0.04805888 0.14383209
0.20957363 0.07747126 0.052786052 0.12788206 0.1359733 -0.04382972 -0.111185625 0.03816625
0.03228306 0.055426084 -0.096562244 -0.03305403 -0.06309834 0.06757574 0.038839184 0.009548134
-0.06592284 -0.0061209807 0.015060614 0.016662288 0.049154006 0.068521075 -0.0056055537 0.030671204
-0.015414403 0.09221679 -0.029823335 -0.041991528 -0.016035056 0.03753508 -0.1174801 0.12047735
0.028600661 0.08982238 -0.043923173 0.04897886 -0.008099598 -0.029239826 0.024651725 0.06159514
0.19809785 -0.20017247 -0.13508822 -0.07885969 -0.26091385 -0.16958411 -0.06828628 0.17944865
0.22286321 -0.0028903224 -0.23235567 -0.050238587 -0.16896771 0.0008706227 -0.12481283 0.032670945
-0.27824095 -0.17777891 -0.022787528 -0.12440661 0.026541155 0.03128873 -0.11859711 0.173983
-0.041585267 -0.046058297 -0.1232792 -0.090409026 0.09193499 0.036386136 -0.0011825385 -0.09970994
-0.18594876 -0.17341664 -0.2308835 -0.04870406 0.032361563 0.067075014 0.13686095 -0.070519105
-0.099948406 -0.04091838 0.0038961528 0.07710374 -0.084868126 -0.09530019 0.089914635 -0.09177453
-0.17209199 -0.1887594 -0.12347698 0.15775445 0.15972762 0.088920735 -0.011838786 0.30162978
0.38574103 -0.029570553 -0.2581862 -0.39063716 0.113346465 -0.05409439 0.40964907 0.12213548
0.0413616 -0.042538635 0.57597387 0.702122 -0.007957761 0.083654605 0.07092727 -0.3131281
-0.6126333 -0.07513402 -0.2165716 -0.124066226 -0.09374459 0.4126223 0.29165238 0.12201243
-0.19291049 0.34725496 -0.09330367 -0.032034483 -0.82533634 -0.08033208 -0.46126905 -0.16061741
00000000: d820 1abd 4f09 a33d b3c7 563e 21c1 3fbd
00000010: a47a 1c3e 21dc 8d3e 0fe2 293d 2cdf 85be
00000020: ea94 603e 2c27 873e 7a7e 62bd ec9c 3abe
00000030: 7e14 7d3c e7ea 05bc 8690 79bd 9c8c 633e
00000040: 2198 853b a880 cd3a e7a2 4ebe 2375 efbd
00000050: 40e0 18be ee06 0ebe 71cd 9abd 567f 7d3e
00000060: 6f9c f9bd 84ed 003d 31e3 e13c 1d1f 4d3e
00000070: 247d 70bd afb3 b8bc 13ba 823d f66a 05be
00000080: 8259 88bd 7b34 a9bd fc89 64bd fbd6 cd3d
00000090: 3531 18bd 4464 fb3d 5c9e 5cbb af70 1bbb
000000a0: ff18 303d cdf4 00bc ba9a a83c 0f46 663c
000000b0: c31e c13d 74f3 853e 0820 873d 497a cf3c
000000c0: b37a 613e b9c6 99bd db72 c73d 7c1e d5bc
000000d0: 5d7a 2c3e 16b3 9dbd 0f4a 073e 78f7 593e
000000e0: dbe7 5bbe 833d cbbc 77ee 903c be3a 8fbd
000000f0: 47c8 ae3d d25e 113f 13cf 4d3d 1c90 6f3e
00000100: a7f4 e9bd 6c66 82bd ae7b e83b 3dc5 033d
00000110: b15c 063d 95df 423d 3688 813d 3cdd a53d
00000120: ad93 86bc 92b0 153c a5ef 183d 886b b0bb
00000130: 516d 4abd 441d b4bd 0f4d a6bc 15a7 b6bc
00000140: 8dee 113d d76e 9cbd 43de e73d 03e1 24bb
00000150: 97a5 8e3c 165c 31bd 61d0 3f3d e6b8 f6bc
00000160: a71e f33b c7f2 14bc a348 82bd e103 b23c
00000170: b63e 1b3d 1b65 41bd bfbc 5bbd 37b1 d93b
00000180: 74fd 7f3d 25fb d2bd a215 51bd 10fc 5cbe
00000190: 9401 30be df9f e5bd 7293 9cbe 357e 50be
000001a0: 7b97 373e d401 aebd 074c 63bc 90ff bb3c
000001b0: d130 243e e831 7d3e 733f 363e 1f12 323e
000001c0: 6e05 96bc 5662 ebbe 10ab bb3e 9f93 69bf
000001d0: 0341 0a3e de77 a0be e7fb f83d 454a 533e
000001e0: 163a 30be 53f2 f93d aaa8 0b3e 1c84 8dbd
000001f0: bf2e 1b3e b1ae 973c 63d9 44bd b848 133e
00000200: 789a 563e 41a9 9e3d 3036 583d 84f3 023e
00000210: 963c 0b3e cb86 33bd 4ab5 e3bd 3754 1c3d
00000220: 3e3b 043d 7606 633d 6dc2 c5bd aa63 07bd
00000230: b439 81bd 2665 8a3d d615 1f3d c76f 1c3c
00000240: 8e02 87bd 8292 c8bb cbc0 763c 5a7f 883c
00000250: b655 493d c754 8c3d cbae b7bb 2d42 fb3c
00000260: b18c 7cbc 28dc bc3d 1150 f4bc 4fff 2bbd
00000270: f35b 83bc 62be 193d 6899 f0bd d4bc f63d
00000280: ef4b ea3c ccf4 b73d c9e8 33bd 0f9e 483d
00000290: 2db4 04bc 5c88 efbc 6af2 c93c 2f4b 7c3d
000002a0: 2ada 4a3e 03fa 4cbe 9154 0abe 3081 a1bd
000002b0: 8096 85be 75a7 2dbe add9 8bbd 63c1 373e
000002c0: 4136 643e 906b 3dbb a5ee 6dbe fac6 4dbd
000002d0: df05 2dbe 803a 643a de9d ffbd f8d1 053d
000002e0: 9975 8ebe ad0b 36be e9ac babc e5c8 febd
000002f0: d66c d93c 9d28 003d 0be3 f2bd 9928 323e
00000300: 5055 2abd a0a7 3cbd ce79 fcbd 5e28 b9bd
00000310: 6948 bc3d a109 153d 68ff 9aba ba34 ccbd
00000320: 5a69 3ebe 2294 31be b96c 6cbe e97d 47bd
00000330: 8f8d 043d a05e 893d 4725 0c3e 526c 90bd
00000340: c0b1 ccbd 089a 27bd 9956 7f3b 91e8 9d3d
00000350: 57cf adbd bf2c c3bd 2a25 b83d 49f4 bbbd
00000360: e238 30be 254a 41be 80e1 fcbd 628a 213e
00000370: a38f 233e 131c b63d 78f7 41bc 386f 9a3e
00000380: d97f c53e f23d f2bc fb30 84be 9801 c8be
00000390: 3122 e83d 1492 5dbd 86bd d13e 2b22 fa3d
000003a0: c86a 293d fe3c 2ebd 0673 133f 44be 333f
000003b0: 4561 02bc 1b53 ab3d 5142 913d 5452 a0be
000003c0: 89d5 1cbf dddf 99bd f2c4 5dbe 6f16 febd
000003d0: 2afd bfbd 3b43 d33e 7653 953e a7e1 f93d
000003e0: 548a 45be 67cb b13e ff15 bfbd 9736 03bd
000003f0: 3e49 53bf 2585 a4bd 752b ecbe e478 24be

fc1.bias f4 [16]
0.33387208 0.59138894 -0.52986825 -0.5390696 0.3344283 0.032912977 0.063235186 -0.61077213
-0.20446563 0.34370103 0.08347013 -0.40802598 0.35532564 0.10693873 0.033899926 -0.27021593
00000000: 48f1 aa3e 4465 173f 72a5 07bf 7700 0abf
00000010: 303a ab3e c2cf 063d 7381 813d 905b 1cbf
00000020: 705f 51be 95f9 af3e 63f2 aa3d c8e8 d0be
00000030: 3eed b53e b102 db3d a6da 0a3d be59 8abe

fc2.weight f4 [16, 16]
-0.54823625 0.25610274 0.13447972 0.49623957 -0.3997653 -0.9918408 0.23549862 0.37700668
-0.6623212 0.19698036 0.67770725 0.64438015 0.021095784 -0.9262236 -0.443759 -0.41201445
0.2613495 -0.57135755 0.54210883 -0.14351133 -0.6394018 0.3447698 -1.130296 0.20080687
0.2527868 -0.21750094 0.14765225 0.63993186 0.23092218 0.39558822 -0.7799636 -0.17308827
0.46294147 0.060122464 0.5375058 -0.7892421 -0.18151091 -0.48964524 -0.2941739 0.13049111
-0.33471635 -0.27157834 -0.7732309 -0.3013178 -0.065668695 0.24841543 0.395369 0.61284375
0.21312802 -0.25509903 0.6699407 -1.4807702 -0.3632391 0.20597552 0.6995639 0.058335625
0.22499649 -0.3844391 1.3043482 0.3869475 0.5648805 0.19130114 -0.19792505 -0.23424032
0.5111447 0.7263195 -0.6339192 -0.93218046 -0.1847344 0.34187353 -0.07914941 -0.79681265
0.09311843 0.06848958 -0.47683322 0.26909444 0.7702196 0.08110182 0.3425887 -0.10758218
0.29026625 0.49864843 -0.5319724 -0.5460135 0.05696409 0.12862179 0.25391522 -0.5460244
-0.6856255 0.37129954 -0.5867497 0.46624687 0.31661505 -0.18867308 -0.85074 -0.14094463
0.23522799 0.22390388 0.9185119 0.73138857 -0.6155405 -0.4144629 -0.06414326 -0.09088132
-0.4784933 0.20481376 -0.49390978 0.42270398 -0.53711945 -0.6279772 -1.188142 -0.42187968
-0.39095628 0.26165286 -0.92660105 1.2988883 0.0136311855 0.6969461 0.08577631 -0.0005329593
0.53557587 0.25703287 0.77711207 -0.42410752 -0.8415859 0.027056638 -0.37579584 0.24190566
0.02261837 0.27504745 -0.8766327 -0.26876053 0.51585776 -0.7906778 -0.47976345 -0.36404097
-0.16567688 -0.0099294325 0.1133049 -0.84087163 1.1424106 0.29101393 0.23438504 -0.1295608
0.84970266 0.41812345 -0.46982166 -0.47818196 -0.2670784 -0.114572525 0.5328154 -0.32374793
-0.9334647 -0.048020136 0.23229624 -0.573789 0.3074344 -0.46591106 -0.6910896 -0.67719144
-0.63782096 0.04377586 -0.7964795 1.0383526 0.19014733 -0.8414844 0.37580308 -0.485359
-0.7535577 0.57181394 -0.23264824 0.37208998 -0.055001695 -0.6467752 0.80491495 0.60120636
-0.3897593 -0.14251845 0.36969057 -0.22582935 -0.9183136 -0.2458192 -0.37166587 0.024001274
1.0054302 0.32810313 -0.021820726 0.1395483 0.44248632 1.0550832 0.4396455 0.72948664
-0.93354815 0.4462514 -0.056423213 1.0104365 0.24317564 -0.21368411 0.75349057 0.12544262
0.17292401 -0.5198056 0.032489903 0.9935759 -0.47540948 -0.1395119 0.01701125 0.3317171
-0.283288 -0.22690515 -0.45454547 -0.5248875 0.38536382 -0.062566474 0.24577425 0.042598728
0.09178012 -0.7183378 -1.3153105 0.4791088 0.40611863 0.16972463 0.9369502 0.5676764
-0.95214957 -0.31441748 0.15371944 1.1221976 0.41623253 -1.2960027 0.5880419 0.5745119
-0.42016572 -0.1248614 0.30668297 0.52165157 -0.72816163 -0.085025586 0.28309584 -0.3082759
-0.7893206 -0.45981443 0.37668103 0.42377868 0.0567118 -0.27313754 0.15145051 0.06276089
0.21702719 -0.8265362 0.8139894 0.18383119 0.049962446 0.16056049 0.8130102 -0.019064963
00000000: 3659 0cbf e61f 833e 0db5 093e 1d13 fe3e
00000010: 0aae ccbe 47e9 7dbf 8d26 713e 0507 c13e
00000020: e28d 29bf 38b5 493e 397e 2d3f 19f6 243f
00000030: 11d1 ac3c fd1c 6dbf 6134 e3be 8ff3 d2be
00000040: 9acf 853e 7d44 12bf a5c7 0a3f a2f4 12be
00000050: d6af 23bf ab85 b03e 8aad 90bf 51a0 4d3e
00000060: 456d 813e 91b8 5ebe 2732 173e 93d2 233f
00000070: dd76 6c3e 8a8a ca3e b2ab 47bf 0d3e 31be
00000080: aa06 ed3e f942 763d fb99 093f c50b 4abf
00000090: ffdd 39be c8b2 fabe f69d 96be 769f 053e
000000a0: f15f abbe 510c 8bbe 76f2 45bf 5446 9abe
000000b0: 4f7d 86bd 9d60 7e3e ce6d ca3e 54e3 1c3f
000000c0: 3b3e 5a3e 579c 82be 3c81 2b3f e189 bdbf
000000d0: 7afa b9be 3feb 523e 9f16 333f 56f1 6e3d
000000e0: 7b65 663e 34d5 c4be e2f4 a63f fc1d c63e
000000f0: 029c 103f 72e4 433e ddac 4abe b2dc 6fbe
00000100: 61da 023f 13f0 393f 8748 22bf 61a3 6ebf
00000110: 042b 3dbe 0c0a af3e 1619 a2bd eafb 4bbf
00000120: e0b4 be3d 4444 8c3d 7c23 f4be bfc6 893e
00000130: 1d2d 453f b618 a63d c967 af3e 0c54 dcbd
00000140: c79d 943e d94e ff3e 582f 08bf 8ac7 0bbf
00000150: 2d53 693d 6eb5 033e 2d01 823e 41c8 0bbf
00000160: 2785 2fbf f91a be3e 3a35 16bf e9b7 ee3e
00000170: 5e1b a23e 8433 41be 19ca 59bf ca53 10be
00000180: 9bdf 703e 0f47 653e 9923 6b3f 483c 3b3f
00000190: 1094 1dbf 7b34 d4be 8b5d 83bd fc1f babd
000001a0: 13fd f4be b3ba 513e bee1 fcbe a86c d83e
000001b0: a980 09bf 1dc3 20bf 0915 98bf 9d00 d8be
000001c0: 6c2b c8be 5df7 853e ba35 6dbf f941 a63f
000001d0: 5655 5f3c 0f6b 323f 7dab af3d 4bb6 0bba
000001e0: 801b 093f d099 833e d1f0 463f 9f24 d9be
000001f0: 2c72 57bf e2a5 dd3c 5068 c0be 1eb6 773e
00000200: 294a b93c 05d3 8c3e 006b 60bf fb9a 89be
00000210: 410f 043f dc69 4abf 8ea3 f5be 9463 babe
00000220: 33a7 29be 0faf 22bc 660c e83d 5d43 57bf
00000230: 833a 923f c7ff 943e a202 703e 96ab 04be
00000240: 1d86 593f 4714 d63e 778c f0be 44d4 f4be
00000250: 80be 88be 00a5 eabd 9766 083f 4ac2 a5be
00000260: 8bf7 6ebf c3b0 44bd 11df 6d3e d6e3 12bf
00000270: 0b68 9d3e e58b eebe 3feb 30bf 6b5c 2dbf
00000280: 3c48 23bf 514e 333d 15e6 4bbf bde8 843f
00000290: fbb5 423e 866b 57bf 4369 c03e fa80 f8be
000002a0: 28e9 40bf 6662 123f 573b 6ebe 9482 be3e
000002b0: 7549 61bd 0f93 25bf e80e 4e3f a9e8 193f
000002c0: 888e c7be 5bf0 11be 1548 bd3e cf3f 67be
000002d0: 9a16 6bbf 07b8 7bbe fd4a bebe 529e c43c
000002e0: f0b1 803f 22fd a73e 61c1 b2bc c0e5 0e3e
000002f0: 918d e23e f70c 873f 3719 e13e a3bf 3a3f
00000300: 03fd 6ebf 107b e43e 071c 67bd fc55 813f
00000310: 0903 793e 02d0 5abe c2e4 403f 0874 003e
00000320: fe12 313e fb11 05bf 2214 053d fd5a 7e3f
00000330: df68 f3be 35dc 0ebe 2d5b 8b3c d3d6 a93e
00000340: 200b 91be d359 68be 2fba e8be 075f 06bf
00000350: 684e c53e da22 80bd 3fac 7b3e 017c 2e3d
00000360: 37f7 bb3d fce4 37bf 185c a8bf c04d f53e
00000370: c8ee cf3e 4bcc 2d3e f8db 6f3f 3e53 113f
00000380: 13c0 73bf 54fb a0be a168 1d3e 2ca4 8f3f
00000390: 6e1c d53e 6be3 a5bf ea89 163f 3613 133f
000003a0: f61f d7be 55b7 ffbd 8d05 9d3e f58a 053f
000003b0: cd68 3abf e521 aebd f0f1 903e 57d6 9dbe
000003c0: ea10 4abf cc6c ebbe 56dc c03e 85f9 d83e
000003d0: a24a 683d afd8 8bbe d815 1b3e c888 803d
000003e0: 603c 5e3e e097 53bf 9c61 503f 3e3e 3c3e
000003f0: 6ca5 4c3d f869 243e 7021 503f 202e 9cbc

fc2.bias f4 [16]
0.07066834 -1.0330269 0.44632435 -0.39291438 0.1296901 -0.004511564 -0.2902824 0.12507527
0.7319182 0.5092166 0.6456376 -0.6865062 -0.3863584 0.4036139 -0.28243026 0.4220559
00000000: 90ba 903d 3a3a 84bf a084 e43e 132c c9be
00000010: 7bcd 043e bed5 93bb e59f 94be bb13 003e
00000020: fe5e 3b3f 055c 023f 8148 253f dfbe 2fbf
00000030: c5d0 c5be 7ba6 ce3e b39a 90be b617 d83e

fc3.weight f4 [2, 16]
-1.1912652 2.1700222 2.7012281 -3.430627 -2.4448302 -2.0299218 2.4900498 1.5963821
-2.4910572 -1.843624 -1.4495368 1.7435727 -1.9889616 -1.6970974 -1.7784754 -1.8855575
2.0987961 0.88727206 1.786119 -2.021747 -1.4879605 -1.9213209 1.9578248 -3.0725887
-1.7432114 -0.024800312 2.3850012 0.20920074 1.3042365 1.8099761 1.473315 1.6439552
00000000: 617b 98bf a5e1 0a40 ece0 2c40 658f 5bc0
00000010: 1978 1cc0 3dea 01c0 fa5c 1f40 4056 cc3f
00000020: 7b6d 1fc0 dffb ebbf 6c8a b9bf 642d df3f
00000030: 4b96 febf 7d3a d9bf 15a5 e3bf f359 f1bf
00000040: ad52 0640 4324 633f 8c9f e43f 4e64 01c0
00000050: 7d75 bebf d8ed f5bf 019a fa3f 4ba5 44c0
00000060: 8d21 dfbf 062a cbbc dca3 1840 b838 563e
00000070: 39f1 a63f 4cad e73f 9695 bc3f 206d d23f

fc3.bias f4 [2]
2.1013684 -0.17412752
00000000: d27c 0640 7c4e 32be
